experiment1/model.pth (torch, 839209 bytes, 24 tensors)

0.weight f4 [64, 1, 3, 3]
000000 d3 b5 92 3e 8a 55 20 3f 46 83 1b be fa 4f 1e 3f
       0.28654346 0.6263052 -0.15186796 0.61840785
000010 cc 71 6e be ec 7d 26 bf 28 53 4f bb 21 15 ed be
       -0.23285598 -0.6503589 -0.0031635258 -0.46305183
000020 9e 2d 0b be 48 b4 9b be 5d c1 56 bf 80 f3 7e 3e
       -0.1359162 -0.3041098 -0.838888 0.24897575
000030 49 c7 2c bf 0b cf 82 3d fe d5 72 3f 69 40 02 3e
       -0.67491585 0.063871466 0.94857776 0.12719883
000040 66 63 f5 3e 0e 7b c2 3e 96 89 2d 3e 3a cb dd 3e
       0.47927397 0.37984508 0.16947016 0.43319112
000050 3e 9d 8d 3e db 20 24 be 48 37 4c 3e b6 a6 e4 3e
       0.2765903 -0.16028158 0.19942963 0.4465844
000060 1e 7f 19 bf 58 48 30 bf fe 24 3c be a9 c9 26 3e
       -0.5995959 -0.6886039 -0.18373486 0.16287865
000070 29 06 88 3e 0e 4d 74 3f 8e 03 f8 be a4 0f 8d be
       0.265672 0.95430076 -0.48440212 -0.27550995
000080 84 bd 46 3f 43 0e 3d bf bc 40 27 bf 1d 53 dc 3e
       0.7763293 -0.73849887 -0.6533315 0.4303216
000090 a3 16 54 3e 33 a8 2e 3e a3 ac 76 be 89 e8 c0 3e
       0.2071176 0.1705635 -0.24089293 0.3767741
0000a0 8a c0 04 bf d0 3e c3 be e2 c6 ae be 26 2c e3 be
       -0.5185629 -0.3813386 -0.3413611 -0.4436962
0000b0 eb 12 0c 3f 04 b1 e1 be c4 06 2e bd 3f e6 2d be
       0.54716367 -0.44080365 -0.04248692 -0.16982363
0000c0 89 34 c1 3d 92 d6 01 bf ea 78 3d be f3 cc 26 3f
       0.094338484 -0.50718033 -0.18503156 0.6515648
0000d0 19 2d 6d bd fc 22 e4 bd d9 f6 18 3f 40 57 b4 be
       -0.057904337 -0.11139485 0.5975166 -0.35222816
0000e0 48 da 73 be da 93 3f 3e 54 c7 75 be 53 55 1c be
       -0.23813736 0.18708745 -0.24001819 -0.15266924
0000f0 7b ed 1b 3f e5 9d 4f bd ce d9 a4 be d4 2f 1d 3e
       0.6090924 -0.05068769 -0.32197422 0.15350276
000100 1b bc c9 bd c6 71 1c bf ae 4f f4 3e 18 30 05 3f
       -0.098503314 -0.61111104 0.4771704 0.5202651
000110 92 9e 62 be fe 10 8e 3e 04 14 6e be 9c 12 83 3e
       -0.22130802 0.2774734 -0.23249823 0.25600135
000120 fe 4e 2b 3e b8 96 28 3f 84 b9 d4 3e 8a 02 3c 3f
       0.16729352 0.6585498 0.41547787 0.73441374
000130 21 87 6f 3d 20 6e 15 bf 19 e3 04 3f 75 70 13 bf
       0.05847848 -0.5837116 0.51909024 -0.5759347
000140 2a e1 50 bf 13 7c 44 3e 08 43 a2 3d 45 1f 37 be
       -0.81593573 0.19187956 0.079229414 -0.17883022
000150 3d 38 06 be 4a 90 09 3f b6 64 f7 be 1c 4b 8b be
       -0.1310739 0.5373579 -0.48319024 -0.2720574
000160 ae aa 09 3f 94 e4 b2 be 96 cc be 3e dc d2 b1 3e
       0.5377606 -0.34940016 0.37265462 0.34731185
000170 6c a5 dd 3e 5b 6f 41 bd 18 ca 89 be 70 d4 3f 3e
       0.4329027 -0.047225337 -0.26911998 0.18733382
000180 c4 a6 7e be 25 12 03 bf 27 68 e9 3d 74 d1 cf 3e
       -0.24868304 -0.5119956 0.113968186 0.40589488
000190 52 7a 28 bf b1 c3 3f be 4c 68 00 3f 2e d1 e5 be
       -0.65811646 -0.18726994 0.50159144 -0.44886154
0001a0 55 b9 0e bf f2 0f 3b 3f e4 1c ec be c9 bb 9a be
       -0.55751544 0.73071206 -0.46115792 -0.30221394
0001b0 9b 9e f2 3e 19 fa 95 be cb af a3 be 5d 6b 40 3d
       0.4738663 -0.29292372 -0.31970057 0.04697739
0001c0 7e fd 5d 3d 8c 04 8f be e4 19 29 3e cf f5 f3 be
       0.054196827 -0.27933156 0.16513783 -0.47648475
0001d0 f2 92 9e be 9b 94 ec be 9a b4 cc be 46 e4 81 be
       -0.30971485 -0.46207127 -0.39981538 -0.2536947
0001e0 56 de ac 3e 49 86 2d bf de 31 48 bf 0b c1 38 3f
       0.3376338 -0.6778303 -0.7820109 0.7216956
0001f0 db a3 06 3f 68 78 ac bd 56 ad c6 be 7f 70 5d be
       0.52593774 -0.08421403 -0.3880412 -0.21624945
000200 eb f5 db be d6 96 ac be 96 25 8a be eb 12 09 bf
       -0.42961058 -0.3370883 -0.269818 -0.5354449
000210 62 83 1c 3e 9d 29 b6 3e 78 02 1b 3f de 33 c9 3e
       0.15284494 0.35578623 0.6055064 0.39297384
000220 88 1d ce bd 74 12 ab 3e e0 40 b0 3d ae 51 a5 3e
       -0.100642264 0.33412516 0.08606124 0.3228888
000230 9c bc c2 3e f6 27 8e ba 65 7d c8 bc cd 1d 1f bf
       0.38034523 -0.001084565 -0.024473855 -0.6215485
000240 bd b4 55 be 6a fe 23 be 02 4c 4a 3e 29 bc c8 bd
       -0.20869727 -0.1601502 0.19755557 -0.09801514
000250 46 63 ac 3d 34 0b b6 be 6a d3 ae be 8d f8 14 bd
       0.084173724 -0.35555422 -0.3414567 -0.03636985
000260 83 c0 45 be de db d4 bd 7d 27 19 3e 41 10 40 be
       -0.19311719 -0.10393499 0.1495647 -0.187562
000270 87 26 d9 3e a3 b8 b2 3e 47 90 ee 3e ca 24 fc 3e
       0.42412207 0.34906492 0.4659445 0.49246818
000280 ed eb b6 3e 1a 8b 03 3f 82 64 0b 3f 2c 59 32 3d
       0.35726872 0.5138413 0.5445024 0.043542072
000290 98 e8 f5 be d1 45 c1 3c fe a9 0a bf 52 8f 94 be
       -0.48029017 0.023592861 -0.5416564 -0.29015595
0002a0 b8 43 d4 be 08 2b a3 be b9 45 1b 3f c0 8d 3e 3e
       -0.41457915 -0.31868768 0.60653263 0.18608761
0002b0 a1 76 a7 be 32 f4 9c 3e e6 13 da be ca 4c 80 be
       -0.32707694 0.30655056 -0.42593306 -0.25058585
0002c0 21 c2 72 3e f1 9b 8a 3e 81 a2 e4 3d b0 3e e3 3e
       0.23706867 0.270721 0.11163808 0.44383764
0002d0 c4 d3 9b 3e 47 f6 7d 3e aa 8c 09 3f a5 12 f4 be
       0.30435002 0.24800979 0.5373026 -0.47670475
0002e0 c8 5f 62 be 51 2f ee 3e 5e db 00 bf 6f 7a ea be
       -0.2210685 0.46520475 -0.5033473 -0.45796534
0002f0 e8 dc ea 3e 6c c3 1b be 53 11 07 3f 25 72 b8 3e
       0.45871663 -0.15211266 0.5276081 0.36024585
000300 78 64 f9 3d f8 cf 86 bd c2 6f 1e be 5c a5 31 be
       0.12177366 -0.06582636 -0.1547232 -0.17348236
000310 d3 7f 1b be 77 34 15 bf bb b9 91 bd 37 90 90 bc
       -0.1518548 -0.5828318 -0.071155034 -0.017646892
000320 0e 25 25 3f 59 cc 56 3d 17 f0 12 bf 66 e3 48 be
       0.64509666 0.052440975 -0.573976 -0.19617996
000330 06 eb 56 be c2 31 8b 3d fe 6a bb be d9 9b 9b 3b
       -0.20988092 0.067966 -0.36605066 0.004748803
000340 da ff 2a 3e a6 51 04 bf a6 be c2 be 01 38 55 3f
       0.16699162 -0.51687086 -0.38036078 0.8328858
000350 ea 9a dd be 0b f8 f4 be ec d8 ba 3e 10 77 02 be
       -0.43282253 -0.47845492 0.36493623 -0.12740731
000360 8a 66 0a 3f 3e 16 11 be f1 12 7d bf 07 f7 00 3f
       0.5406271 -0.14168641 -0.9885703 0.50376934
000370 16 ac 09 3f a8 3b 48 3e 87 77 50 bd fb 05 d0 3e
       0.5377821 0.19554007 -0.05089524 0.40629563
000380 33 7e 8b be aa 74 92 be af 32 5a bd 10 9a 9e 3d
       -0.2724472 -0.28604633 -0.053270992 0.07744229
000390 02 99 b3 be d3 f9 f6 3e 8e 27 7d 3e 9a 4f 24 3e
       -0.35077673 0.48237476 0.2472212 0.1604599
0003a0 c5 d9 5c 3e 0f 1e 4a bf c0 52 0b bf cc 54 d6 be
       0.21567447 -0.78952116 -0.5442314 -0.4186157
0003b0 47 a5 8e be 97 ff 91 3d 90 25 a0 bc 0e d7 0e bf
       -0.27860472 0.07128828 -0.019549161 -0.557969
0003c0 3d 8f c9 3e 16 48 72 3e 34 5e 32 3e 30 05 b3 3e
       0.39367095 0.23660311 0.17418748 0.34964895
0003d0 34 8b b1 3e 88 7d d7 3d 2d 0c b0 3e 17 1d 8d 3e
       0.34676516 0.1052199 0.3438429 0.27561256
0003e0 ab 5c f9 be be 3c 36 bf 33 b0 99 3e 54 8e 63 3d
       -0.48703513 -0.71186435 0.30017242 0.055555657
0003f0 c1 ac 7e 3e 64 30 a3 3e de fe fe 3e c6 9c a8 bd
       0.24870588 0.31872857 0.49803823 -0.08233027

0.bias f4 [64]
000000 5e 33 02 be 40 6b b6 bd 7d 13 d6 be e0 5a 6b be
       -0.12714908 -0.08907175 -0.41811743 -0.22983885
000010 a8 39 7a bd 64 b5 ac bd bc 3b 5e be 7e ed 3e be
       -0.06109014 -0.08433035 -0.21702474 -0.18645284
000020 2f 6b 8c 3c 1d 8a 82 3c bb b0 3f 3e 10 36 24 3e
       0.017140953 0.015934998 0.18719761 0.16036248
000030 21 33 51 bd 4e 6b a8 be a6 a2 46 bc 46 4d f6 bc
       -0.05107415 -0.32894367 -0.012123739 -0.030066144
000040 d6 d6 cf bc ca 09 f6 3c 10 aa 50 3e e5 9a 19 bd
       -0.025370996 0.030033965 0.20377374 -0.037501235
000050 21 52 e6 bd b4 62 f3 3e d5 d8 56 3d eb e6 4c 3d
       -0.112461336 0.47536242 0.05245288 0.050024908
000060 14 7a d6 bd c0 b0 18 be 39 c0 8d be 6a e8 af be
       -0.10472503 -0.14911175 -0.27685717 -0.34357005
000070 27 a3 d8 bc ff e7 36 bd 12 5b 4b 3e 84 c3 3c be
       -0.026444985 -0.044654842 0.1985896 -0.18433958
000080 8d e6 1b 3e 22 cd 11 be 6a c9 3f 3e 5e 59 01 3e
       0.15224667 -0.14238408 0.18729177 0.12631747
000090 77 39 6a bd d1 77 26 3e 3f ff 43 be d5 96 fe bd
       -0.05718371 0.16256644 -0.19140337 -0.12431113
0000a0 e4 0f 78 be d7 82 a2 3d a7 79 a6 3d ff 4a 83 3e
       -0.24224812 0.07935112 0.08128672 0.25643155
0000b0 44 d2 12 3d 1a 72 d6 be 2b 06 e9 bd e2 02 36 3e
       0.035845056 -0.41883928 -0.113781296 0.17774537
0000c0 f0 c2 85 bd d8 72 89 be f4 be 6d bd 30 7c 6f bd
       -0.06531322 -0.2684543 -0.058043435 -0.058468044
0000d0 41 54 98 3d f1 8c 91 3e a2 95 12 3e e3 3f 43 bc
       0.07437945 0.28427842 0.14314893 -0.011917087
0000e0 cc f9 68 bd d2 88 23 be 5a 36 31 be cb be 21 bd
       -0.05687885 -0.15970162 -0.1730589 -0.039488595
0000f0 76 6f 26 3e 83 64 8a bc a7 fa 6d 3c 35 f2 9b be
       0.16253456 -0.01689363 0.014525092 -0.30458227

1.weight f4 [64]
000000 8d 0a 92 3f 4d 78 71 3f a7 58 9f 3f 72 10 77 3f
       1.140947 0.9432419 1.244893 0.9650947
000010 37 3c 9e 3f 19 a6 98 3f 4f 94 58 3f c4 03 37 3f
       1.2362126 1.1925689 0.846013 0.7149012
000020 2b 56 66 3f 3e 05 9a 3f 1c a9 83 3f 2a 47 9d 3f
       0.8997523 1.203285 1.0285983 1.2287343
000030 f7 b6 74 3f fa f3 a6 3f a0 df a6 3f de a1 50 3f
       0.9559168 1.3043206 1.3036995 0.8149699
000040 8f 88 81 3f 0c fb 30 3f 0d c6 a3 3f fe d1 4a 3f
       1.0119799 0.6913307 1.2794815 0.7922667
000050 2c a1 8d 3f ca 6e 6a 3f 1e a7 95 3f a5 fb a6 3f
       1.1064811 0.915753 1.1691625 1.3045546
000060 cf 87 48 3f 96 15 a3 3f f0 bc 90 3f f7 16 5b 3f
       0.7833223 1.2740963 1.1307659 0.85581917
000070 08 94 9c 3f 07 01 92 3f 2d 23 4a 3f 18 ff 7f 3f
       1.2232676 1.1406564 0.78959924 0.9999862
000080 34 9f 5e 3f d5 59 a1 3f f9 3c 37 3f 04 67 ad 3f
       0.86961675 1.260554 0.7157741 1.3547063
000090 d9 5d 85 3f 8f ee 53 3f 3f dd 86 3f e8 5d 76 3f
       1.0419265 0.82785887 1.0536269 0.9623704
0000a0 7e f7 6d 3f 97 80 3e 3f 86 06 80 3f b7 38 7f 3f
       0.9295577 0.7441496 1.0001991 0.99695915
0000b0 1a c1 90 3f 83 40 86 3f bd 03 80 3f 5c a3 33 3f
       1.130893 1.0488437 1.0001141 0.7017114
0000c0 91 16 94 3f 7d d0 7b 3f 12 3e 4f 3f 87 b4 8a 3f
       1.1569387 0.98365 0.80954087 1.0836343
0000d0 b0 a4 8e 3f 6d 0e 93 3f 2d d4 5e 3f 96 66 8a 3f
       1.1144009 1.1488777 0.87042505 1.0812557
0000e0 18 f0 14 3f b1 08 80 3f b4 8a 76 3f 5d d1 7e 3f
       0.58178854 1.0002652 0.96305394 0.99538213
0000f0 e1 f2 7d 3f 90 33 be 3f d5 76 88 3f 60 08 9d 3f
       0.9919873 1.4859486 1.0661265 1.2268181

1.bias f4 [64]
000000 c2 1a 0b bd d6 84 22 be 70 df ea bd 03 35 b1 be
       -0.033961065 -0.15870985 -0.114683986 -0.34610757
000010 4f 07 5d be e1 ff ec bd 30 82 0f be d7 33 7c bd
       -0.2158482 -0.115722425 -0.14014506 -0.061572876
000020 32 ef ef bc 07 30 aa 3c 5d 75 fe bd 4f 1c 99 be
       -0.029288862 0.020774854 -0.12424729 -0.2990441
000030 cd c1 71 be c7 59 2a 3e 03 cf 7d 3d 31 1d 57 be
       -0.23609085 0.1663581 0.061965 -0.2100723
000040 db 56 2d 3d 95 68 b8 be 5f e9 68 be d8 bb 38 be
       0.04231916 -0.3601729 -0.22745274 -0.18040407
000050 64 91 70 3c 3d 30 77 be 12 b4 81 be cf 03 8d be
       0.014683101 -0.24139495 -0.25332695 -0.27541968
000060 c9 5b 50 bd 27 7e 8e 3c c0 b9 3e 3d 54 03 d8 bd
       -0.050868783 0.017394139 0.046563864 -0.1054751
000070 28 e3 90 3d 66 d5 6a bc fa 6d b0 be 44 4a 63 39
       0.070745766 -0.014333105 -0.34458905 0.00021676073
000080 62 dc 67 be 68 cb ec 3d 9c 23 1d be 11 df 7e bc
       -0.22642663 0.11562234 -0.15345615 -0.015556113
000090 2e 3e 95 3d de 26 83 be 84 8b 1d bc 50 c8 af bc
       0.072872505 -0.2561559 -0.009615783 -0.021457821
0000a0 9c 1d 6f bd b7 75 78 be 77 d1 77 3c 78 56 e6 bd
       -0.058377847 -0.24263655 0.015125624 -0.11246961
0000b0 ad 58 55 bd ab 1e 99 be 57 f7 04 3b da 88 ce be
       -0.05208652 -0.2990621 0.0020289028 -0.40338784
0000c0 9f e1 82 be 6f 62 85 be 7f 35 2f bd 99 be ca bc
       -0.2556276 -0.2605166 -0.042775627 -0.024749087
0000d0 95 71 03 bf 0d 86 73 be 0b 16 6c be 80 a2 92 3b
       -0.5134519 -0.23781605 -0.23055284 0.004474938
0000e0 ca db d7 be 38 76 8f 3a 5d c1 47 be 1c 8a 13 be
       -0.42159873 0.0010945266 -0.19507356 -0.14408153
0000f0 d9 7c 68 be ee b6 33 3e 6a ce ce bd 2a 92 e8 3c
       -0.22703876 0.17550251 -0.10097964 0.028390009

3.weight f4 [64, 64, 4, 4]
000000 e6 34 85 3c 63 a7 fc bc 03 ee 39 3d 48 a2 d9 3b
       0.016260576 -0.030841535 0.045393 0.00664166
000010 2c db 76 3c 9a b2 ef 3c 17 51 3f 3c f2 1d 55 bc
       0.015066903 0.029259969 0.011677048 -0.013007628
000020 02 fc c2 3d c7 a8 dc 3d 28 33 40 3d f0 a9 5e bd
       0.09520723 0.10774379 0.046923786 -0.054361284
000030 01 71 5c 3d db 8d 2d 3d 3b 6e a9 3c 0d 12 99 3b
       0.053818706 0.042371612 0.020682445 0.0046713413
000040 06 4c c3 bd d3 2c ec bd 83 f6 bb bc ae b3 29 bd
       -0.09535985 -0.11531987 -0.022944694 -0.04143112
000050 d6 a6 5a bd 14 2b ad 3c 7c 83 34 3d 06 7e 94 3c
       -0.053381763 0.021138705 0.044070706 0.018126499
000060 66 93 69 3c 20 65 97 3d 38 52 ba 3d 34 d4 a6 3d
       0.014256334 0.07392335 0.09097713 0.08145943
000070 cc 88 bf bc 88 2e c8 3d 41 5f 17 3e 92 ad ee 3d
       -0.02338066 0.097745 0.1478243 0.116542
000080 b6 ee 80 3d 49 f8 99 3d 18 b2 1d 3d 7b d6 0e bd
       0.062955305 0.0751806 0.03849992 -0.034872513
000090 35 16 6d bb 59 ad 60 3d 05 0c 9b 3c 51 a2 e7 bc
       -0.0036176567 0.054852817 0.01892663 -0.02827564
0000a0 eb ca c4 bc 28 26 40 bd 2d 0e a2 bc 74 41 d0 bc
       -0.02402254 -0.04691139 -0.01978215 -0.025421835
0000b0 53 4d 3e bd 64 d1 c2 bc f5 f4 37 bb 4b 8e a7 bc
       -0.04646046 -0.023781486 -0.002806959 -0.020453593
0000c0 54 90 c1 3d 03 27 1a 3d 90 aa c4 bc 63 8a 4b bd
       0.094513565 0.03763486 -0.024007112 -0.049692523
0000d0 04 37 98 bc 3e 14 9d bc 1b e3 7a bd 74 4f bb bd
       -0.018580921 -0.019174691 -0.06125174 -0.09146014
0000e0 32 5f d2 bd 73 2d 1f 3c 2e d0 4a 3c ce 33 10 bd
       -0.10272063 0.009715426 0.0123787355 -0.035205655
0000f0 06 8a 4d bd fe ee 2d 3d 2e e8 5e 3d ef 7c 8b 3c
       -0.050180458 0.04246425 0.054420643 0.017027346
000100 de df f7 bc d6 2a 76 bd f6 53 49 bd 06 e6 90 bc
       -0.030258115 -0.060099445 -0.049152337 -0.017687809
000110 da fa c6 bc f1 79 49 3c c1 16 54 3b 74 45 f6 ba
       -0.024289537 0.0122971395 0.0032362195 -0.0018789009
000120 12 4e f3 3d 71 17 ae 3c 4d d0 7f 3d 3f 27 f8 bc
       0.11880125 0.021251412 0.06245451 -0.030292151
000130 be 8f 89 3d 26 fd 88 3d b5 26 c3 bc 47 f0 2d bc
       0.0671687 0.06688909 -0.023822168 -0.010616369
000140 d6 89 86 3d 6f 4b 31 bc 8b 99 9d bd 91 f3 39 bd
       0.06569259 -0.010821207 -0.076953016 -0.0453983
000150 55 fa 12 3d 94 3a a2 bc d4 1e 7d bc 08 f3 ac bd
       0.035883266 -0.019803323 -0.0154492445 -0.08444792
000160 56 23 0a bd db 6a a0 bd 63 71 ac bd 5e 9e 22 bd
       -0.033725105 -0.07832881 -0.08420064 -0.039701812
000170 71 89 c5 bd 98 84 05 be a7 d5 94 bd 41 47 42 bc
       -0.096453555 -0.13038862 -0.072673135 -0.011857809
000180 16 d0 cd 3d a4 58 7c 3c 0a bf 9b 3d 09 3f 83 3a
       0.10049455 0.015401993 0.07604797 0.0010013293
000190 73 f4 22 3d 77 62 46 3b 52 a2 96 3b a3 1b 64 bd
       0.039783906 0.0030271092 0.004596987 -0.05569042
0001a0 81 0f c4 bc 1c 18 ee bc cb b8 6f bc 5c b4 58 bd
       -0.023933174 -0.02906423 -0.01463146 -0.05290638
0001b0 00 50 d4 bc 9e 53 4d bd bf 1a 9a 3c 56 68 0a bd
       -0.025917053 -0.05012857 0.018811582 -0.03379091
0001c0 50 6f e1 3c 83 ca 1e 3d a9 e7 64 3d e7 a2 28 3d
       0.027518898 0.03876735 0.05588499 0.04117098
0001d0 63 0a b8 3d 5c 5c 5e 3d 62 e7 ee 3c 73 41 6a 3c
       0.08986356 0.0542873 0.029163066 0.014297831
0001e0 da 63 ad 3d 67 9a 01 3d 53 fa 1a bd 35 9c 0e 3b
       0.08466311 0.03164139 -0.037836384 0.0021760587
0001f0 84 0c 1b bd 05 93 52 bd 26 c8 8f bd 49 ff 15 bc
       -0.037853733 -0.05140974 -0.07020597 -0.009155103
000200 bf d2 a3 3d 39 9d c6 3c 72 40 d7 3b 9c cd 61 bd
       0.07999181 0.024244891 0.006568962 -0.055127725
000210 0e 3d b2 3d 5c 32 a4 3d 53 f7 bc bc 1a b3 b7 bd
       0.087030515 0.08017418 -0.023067152 -0.08969708
000220 63 a1 a8 3d 28 e9 99 3d be e3 38 bc d2 28 ef bc
       0.08233907 0.07515174 -0.011284767 -0.02919427
000230 fe f8 db bb 97 b1 93 bd 7c 08 84 bc dd 2a 91 3d
       -0.006713032 -0.07211607 -0.016117327 0.07088254
000240 55 a0 1f 3c b0 61 ad 3c 07 d6 19 3a 3f 64 80 bd
       0.009742816 0.021164745 0.00058683794 -0.062691204
000250 ac 17 fa 3b ca 08 57 3d e7 3e 63 bd 06 b5 fe bc
       0.0076322164 0.052498616 -0.05547991 -0.031092178
000260 b9 c9 8c bb b9 f6 49 3d 99 0c 44 bd ca df 6e bd
       -0.004296508 0.04930756 -0.047863577 -0.05831889
000270 a6 02 9c ba 37 24 4d 3c 82 90 44 bc 50 13 67 bd
       -0.0011902645 0.012520841 -0.011997344 -0.056414902
000280 74 78 f9 3d 08 a6 8e 3d a1 15 3f 3d cc 2f f4 bb
       0.12181178 0.06965262 0.046651486 -0.007451987
000290 d6 84 99 3d ed 38 9e 3d 2b cb 58 3d 01 36 15 bd
       0.074960396 0.077257015 0.05292813 -0.036428455
0002a0 1e b2 a0 3d 22 55 5d 3d 45 28 2a 3d 4f 6b c7 bc
       0.07846473 0.054036267 0.04154231 -0.02434316
0002b0 8e e9 70 3d d7 a5 34 3d 5e 18 4e bd 71 0a 2b 3c
       0.058816485 0.04410347 -0.050316207 0.010439501
0002c0 f9 e1 05 3e b7 88 c4 3c c5 8a d0 3d 31 94 91 3d
       0.13074483 0.023990972 0.10182718 0.071083434
0002d0 2a 11 b5 3d 83 cf 01 3c d5 85 b7 3d 28 9a 3c bc
       0.088411644 0.00792301 0.08961073 -0.011511363
0002e0 ac 93 ca bb 59 49 b6 3c 19 36 a3 3c ca 38 d1 bc
       -0.0061821546 0.022251772 0.019923257 -0.025539774
0002f0 71 b9 af bd 24 d8 03 be 7f 3c 3f bc 0e 49 44 bd
       -0.08580292 -0.1287542 -0.011672138 -0.047921233
000300 3a 03 ff 3c 90 03 40 bc 25 fc 37 3d bc 20 92 3c
       0.031129468 -0.011719599 0.0449182 0.017837875
000310 31 3d 2f 3d 6c 8a 13 3d 35 67 53 3d 91 7f 22 3d
       0.042782966 0.03602068 0.051612098 0.039672438
000320 08 b2 0b 3d 77 d8 3b 3d 18 ec 0b 3d da f1 1b 3d
       0.03410533 0.045860734 0.034160703 0.038072444
000330 32 1c 70 3d 45 4b 29 3d be 4c 84 bc 5d 40 bc 3a
       0.05862064 0.04133155 -0.016149875 0.0014362443
000340 ef 9c c3 3d a4 78 36 bd eb 46 77 bd 56 f7 55 bc
       0.09551417 -0.044548646 -0.060370367 -0.013059458
000350 b8 51 e4 3c d5 b7 37 bd 5c d8 a4 bd d0 1f 5c bd
       0.027870998 -0.04485305 -0.0804908 -0.053741276
000360 7c f1 8f bc 32 4a 0b be 60 ac eb bd 84 f9 87 bd
       -0.017571203 -0.13602522 -0.11507487 -0.06639388
000370 af 3b 22 be ab 84 25 be 0d a7 ca bc 27 04 b9 3b
       -0.1584308 -0.1616389 -0.02473786 0.005646247
000380 02 8d 98 39 0e c6 08 bd 18 51 f5 bc 16 e8 52 3c
       0.00029096758 -0.033392005 -0.029945895 0.012872716
000390 c8 6c 05 bc 71 1d 03 3b 3e 40 66 3c aa b7 9f 3d
       -0.008143611 0.0020006562 0.0140534025 0.07798703
0003a0 4e 4f d4 bc d5 be c0 3b 64 89 b1 3c f7 4a c4 3c
       -0.025916722 0.005882124 0.021671958 0.023961527
0003b0 99 0e e8 bb 48 f9 eb b8 50 6b 56 3c 05 54 24 3d
       -0.0070818183 -0.000112521055 0.013087109 0.04011919
0003c0 4a e9 04 3d 28 8b c0 bc ca 25 17 bd 8b ba b4 bd
       0.032449044 -0.023503855 -0.036901273 -0.08824643
0003d0 50 4c 79 3d cf e5 34 bd 75 f9 86 bd a6 be 89 bd
       0.060863793 -0.044164475 -0.06590549 -0.067258164
0003e0 78 9e 8f 3b 96 1a ef bc d3 53 a2 bd 15 7e 74 bd
       0.0043829046 -0.029187482 -0.079261445 -0.059690554
0003f0 40 10 b8 3c 2a 24 37 3c 2a ce 77 bc 3a b7 a3 3d
       0.022468686 0.011178056 -0.015124837 0.07993932

3.bias f4 [64]
000000 28 97 81 3d 25 55 72 bd d7 ca 34 bb 85 c7 16 bc
       0.06327659 -0.05916323 -0.0027586722 -0.009202843
000010 1d 36 75 bc 29 a6 1c 3d d9 b8 cc bc a9 65 3b 3c
       -0.014966515 0.0382444 -0.024990486 0.011437812
000020 91 db 92 bd 43 00 85 3d 36 cd 2b 3d 11 d3 04 bd
       -0.07170785 0.064941905 0.04194375 -0.03242785
000030 de 89 c6 bd 3c ef b6 3d c0 91 77 bd bd d8 98 3d
       -0.09694265 0.08932349 -0.060441732 0.074632145
000040 5f 52 58 3d 72 a2 64 bd d9 a3 30 3d 1e a2 dc bc
       0.05281293 -0.055818982 0.043125007 -0.026932772
000050 11 11 89 3d 27 f5 92 bd ad ff 66 bd 30 a7 6b 3d
       0.06692708 -0.07175665 -0.056396175 0.05753249
000060 6d 8c 32 3d 33 c7 29 bd d3 53 54 3d 1a 77 bc bd
       0.04359095 -0.041449737 0.051837754 -0.09202404
000070 14 ba 50 bd b9 f4 e2 3c 39 d9 23 3d 85 04 7b bd
       -0.050958708 0.027704583 0.04000208 -0.061283607
000080 00 3d 4b bb 19 37 b5 bc 99 0c 24 3d 01 4f 17 bd
       -0.00310117 -0.022121 0.040051077 -0.03694058
000090 35 e4 82 3d 9c 6a 98 bd 15 5c ca 3c 80 46 5c bd
       0.06391183 -0.07442209 0.024702111 -0.05377817
0000a0 2b d6 44 3d 01 3c 25 bd 15 25 fb bc f0 09 65 3d
       0.04805581 -0.040340427 -0.03065733 0.05591768
0000b0 19 2d 4f 3b a4 47 09 bc 41 db 66 bd 96 8e 37 3d
       0.0031612574 -0.008378897 -0.05636144 0.044813715
0000c0 d4 5f 68 bd 87 49 54 3d 69 b5 c6 bb a8 fa 15 ba
       -0.056732014 0.051827934 -0.0060641062 -0.00057212496
0000d0 05 3d 8d 3d af 82 84 bd ee 2c a8 bc 42 e1 52 3b
       0.06896404 -0.064702384 -0.020529237 0.003217772
0000e0 9a 54 f2 3c 8c eb 26 bd 02 06 4f bb 9f 85 d5 3c
       0.029581357 -0.04075198 -0.0031589274 0.026064692
0000f0 7e 8c 45 3d 4c 40 70 bd 1c 18 26 bd 45 98 6c 3c
       0.048229687 -0.05865507 -0.040550336 0.014440601

4.weight f4 [64]
000000 0f 04 38 3f b7 8c 21 3f b3 a4 5e 3f 53 a8 67 3f
       0.7188119 0.6310534 0.8697006 0.9049122
000010 c0 68 47 3f 2e 44 8b 3f 25 54 4c 3f b0 a3 58 3f
       0.7789421 1.0880182 0.79815894 0.8462477
000020 cf 11 2b 3f 3f d1 99 3f 02 4b 49 3f cf 7d 3a 3f
       0.6682405 1.2016982 0.7863008 0.7284822
000030 48 af 83 3f 52 39 2c 3f ee 3f 22 3f f3 36 4a 3f
       1.0287867 0.67274964 0.633788 0.78990096
000040 ae d1 19 3f 11 0d 1c 3f d9 b9 49 3f cd 5e 4c 3f
       0.6008557 0.6095744 0.78799206 0.79832155
000050 30 2c 25 3f 46 ff 22 3f 0e 1b 48 3f b8 c1 05 3f
       0.6452055 0.63670766 0.7816628 0.52248716
000060 b5 dc 03 3f 9e be 68 3f 0f c1 1a 3f e0 49 78 3f
       0.5150865 0.9091586 0.60450834 0.96987724
000070 ff 31 46 3f d9 ce 73 3f a9 f6 e6 3e 45 c6 4c 3f
       0.7742004 0.952375 0.45110062 0.79990035
000080 b3 7f 73 3f b5 f8 44 3f ce ba e8 3e a8 c1 78 3f
       0.9511673 0.76941997 0.4545502 0.97170496
000090 e9 21 0f 3f 1d d3 79 3f 78 1a 51 3f 76 56 82 3f
       0.5591112 0.9758776 0.81681013 1.0182636
0000a0 e5 2b 6e 3f dc 60 5b 3f 65 b8 7b 3f 4f 7e 51 3f
       0.9303573 0.8569467 0.9832824 0.81833357
0000b0 c6 3a 7a 3f 80 8a 8e 3f 3d 80 64 3f 6f 2b eb 3e
       0.9774593 1.1136017 0.89258176 0.45931575
0000c0 2a ca 64 3f 07 75 3d 3f 29 49 20 3f ab 28 39 3f
       0.8937098 0.74006695 0.62611634 0.7232768
0000d0 23 ee 2f 3f fa d0 8c 3f 68 58 57 3f a1 c8 6f 3f
       0.6872274 1.1001275 0.8411927 0.9366551
0000e0 44 f7 4b 3f ba 17 83 3f 6b 4c 6f 3f 37 50 3e 3f
       0.7967417 1.0241616 0.9347598 0.7434115
0000f0 eb 08 4d 3f bb 7f 40 3f f6 16 4f 3f 94 c7 f1 3e
       0.8009173 0.751949 0.8089441 0.4722258

4.bias f4 [64]
000000 ef 5a 47 bf c0 96 a4 bd 8c 05 25 bf dc 68 86 be
       -0.7787313 -0.08036566 -0.6446159 -0.26251876
000010 20 a8 fd be 2d 88 17 bf bc a1 b5 be 1f 75 1f bf
       -0.49542332 -0.5919216 -0.35474956 -0.6228809
000020 a3 f1 24 be 68 73 89 bf d3 3a 1e bf 52 01 e3 be
       -0.16107802 -1.0738344 -0.6180851 -0.44336945
000030 cc 1d 06 be 39 d1 28 bf c2 d6 55 be f5 5a 6f bf
       -0.13097304 -0.6594425 -0.20882705 -0.93498164
000040 14 17 30 be f7 53 1a bf 48 1b 0d bf 58 49 20 bf
       -0.17196304 -0.6028437 -0.5511975 -0.62611914
000050 07 d9 69 bf 74 aa 05 be 9d 5c c0 be 87 1c 0b bf
       -0.9134678 -0.13053304 -0.37570658 -0.54340404
000060 ef 24 c2 be 3c 95 41 bd 19 b1 fb be 41 1f 97 be
       -0.37918803 -0.04726146 -0.49158552 -0.29516032
000070 3f 3e a0 be 52 b1 59 bf c2 66 82 bf d4 f6 54 be
       -0.3129749 -0.85036194 -1.0187609 -0.20797282
000080 d4 04 27 bf 5d b9 fe be c2 cc cc be af 0d be 3c
       -0.6524174 -0.49750796 -0.39999968 0.023199884
000090 d6 88 a0 be 24 47 0b bf 54 f5 42 bf 9e f2 3e be
       -0.31354398 -0.54405427 -0.7615559 -0.18647239
0000a0 11 4a 2d bf 9b de 0c bf 68 40 8c be de 77 33 bf
       -0.6769114 -0.5502717 -0.27392888 -0.7010478
0000b0 14 1f 81 bd ae 58 ab bf be 90 97 be 57 5f 0c bf
       -0.06304756 -1.3386438 -0.29602617 -0.5483298
0000c0 3a b7 fc be 13 4a e8 be 9a 89 be be 4f ba 14 bf
       -0.4935854 -0.45369014 -0.37214357 -0.58096784
0000d0 89 0b 61 bf 83 09 8a bd eb 46 e6 3c 87 2a 46 bf
       -0.87908226 -0.067400955 0.028109988 -0.7740864
0000e0 da 7d 07 bf 3e 38 7d bd f2 c7 19 bf 0b c7 02 bf
       -0.5292641 -0.061821215 -0.6007072 -0.51084965
0000f0 d2 49 56 bf 59 25 08 be 38 ea c5 be a9 f5 84 bf
       -0.8370639 -0.13295497 -0.38655257 -1.038747

6.weight f4 [64, 64, 4, 4]
000000 a7 a3 e4 bc 90 22 90 bc f3 47 00 bd 98 42 7c bd
       -0.027910067 -0.017594606 -0.031318616 -0.061586946
000010 fb ea f7 bc 18 08 51 bd d3 6c 74 bc 08 73 44 bd
       -0.030263415 -0.05103311 -0.014918524 -0.047961265
000020 31 0b bf 3c 56 17 4e 3c bc af ba bb d5 ce ff 3b
       0.023320766 0.012578806 -0.0056972187 0.0078066387
000030 cd 97 58 3d 6f 38 93 3c c8 94 59 bc 3e d1 2d 3a
       0.052879144 0.017971246 -0.013280101 0.0006630606
000040 5d 58 85 3d 99 c0 12 3d fa 70 11 3b 0c 76 96 bd
       0.065109946 0.035828207 0.0022192583 -0.073467344
000050 84 a0 92 3d 90 75 82 3c 25 6b c8 bd 6c 94 da bd
       0.07159522 0.015925199 -0.09786061 -0.106728405
000060 7d c0 1c 3e c1 42 b7 3d 78 c7 93 3b 6a 81 c1 bd
       0.15307803 0.08948279 0.0045098625 -0.09448512
000070 b4 e8 65 3d 65 18 ff 3c 23 d7 c0 3a 27 4e 91 bd
       0.056130126 0.031139562 0.0014712553 -0.070949845
000080 3e 97 97 bc ab a4 56 bd d1 a2 8b bd 13 08 92 bd
       -0.018504735 -0.052403133 -0.06818164 -0.07130446
000090 3c 06 1d 3d 88 c9 3a bd 31 43 06 bc 8f 0a 8c bd
       0.038336024 -0.04560235 -0.008194731 -0.068379514
0000a0 26 14 fd 3b b3 41 21 bd 6c 9b 84 bb fb df f7 bc
       0.007723349 -0.039369296 -0.004046848 -0.03025817
0000b0 e7 0e 3c bb 9e fa 4b 3c 8e 84 4b 3c 9b 3c b0 bc
       -0.0028695406 0.0124498885 0.01242174 -0.021513274
0000c0 16 a6 20 bd 64 4d c6 bb 62 26 91 3c 98 f0 61 bd
       -0.039220892 -0.006051706 0.017718498 -0.05516109
0000d0 e3 03 d7 3c a4 5f c6 3c 22 08 90 3d bf fb 05 bc
       0.02624697 0.024215527 0.07032801 -0.008177697
0000e0 0a 67 1d 3d be 61 ad 3d 1f 66 93 3d 8c 57 47 bc
       0.038428344 0.084659085 0.071972124 -0.012166869
0000f0 bd a8 d4 3d 89 f3 a9 3d cd 95 0c 3d 52 fa 98 bd
       0.10383747 0.08298404 0.03432255 -0.0746962
000100 20 a3 c5 3c 4b b8 5d bd 10 3c 7b bc fc 86 29 bd
       0.024125636 -0.054130834 -0.015334144 -0.041388497
000110 66 6b 5c 3c 7c 28 2a bd 14 92 e9 bc 25 f0 df bc
       0.01345334 -0.041542515 -0.028512038 -0.02733619
000120 f6 f1 54 3c c3 90 2b 3c dc 7e d4 bc 52 fe d9 bc
       0.012997141 0.010471526 -0.025939398 -0.026610527
000130 ed 1d 55 3c 06 f3 ac bc 4c a2 c0 3c 4b 27 1a 3c
       0.013007623 -0.021111976 0.02351489 0.009408782
000140 a1 c5 ae 3d ca 3b 44 3d 6b 8c 8c 3d e2 df b1 3d
       0.085337885 0.04790858 0.0686272 0.086852804
000150 a4 ff 3e 3d 71 6e 18 3d f6 3e 80 3c ab 1d 75 3c
       0.046630517 0.0372147 0.015655022 0.014960687
000160 a7 ed 63 3a 1a 13 5d 3c 18 83 60 3b 78 7b 28 bc
       0.0008694776 0.013493324 0.0034257825 -0.0102833435
000170 dc ec 2c 3a 4f cb 29 bd 5a 2e 35 3c 37 b1 09 3b
       0.0006596574 -0.041453656 0.011058414 0.002101017
000180 c8 1e 5c 3b eb d3 94 3c 5f a7 4f 3d 99 7b d6 bc
       0.0033587683 0.018167457 0.050696727 -0.026181983
000190 94 24 8f 3c 69 8d bb 3b 3d d6 1b 3d 5e ab e1 3c
       0.017473496 0.0057236445 0.03804611 0.027547535
0001a0 f5 94 ee 3c f6 6b 77 3d 07 46 2e 3d 54 fa 25 bc
       0.029123763 0.060405694 0.042547252 -0.010130484
0001b0 52 7f 24 bb 9b 3b 12 bc 99 fc be bb 3e 2d dc bc
       -0.0025100303 -0.008925344 -0.005828452 -0.026877042
0001c0 93 ed f1 bc 75 58 bd bc 7c 35 c0 bc b9 a5 44 bd
       -0.02953223 -0.023113469 -0.023463003 -0.048009608
0001d0 7c 93 15 ba 86 8f 32 3d 2a 56 c5 3b 01 2e 2b bc
       -0.0005705876 0.043593906 0.0060222344 -0.01044798
0001e0 20 30 1d 3d 55 b8 b2 ba df 86 33 3d 87 bb 0c bc
       0.038375974 -0.0013635257 0.043829795 -0.008589632
0001f0 c2 55 95 3d 87 f4 8b 3d 98 34 cb bc 88 ab d2 bc
       0.07291748 0.06833749 -0.024805352 -0.025716558
000200 4a cf 5a 3d 4c 3b c3 bc a5 27 00 3c 3b c4 8c 3c
       0.053420343 -0.023831986 0.007821952 0.017183414
000210 cb f8 a3 bd d1 eb 08 bd 55 af 8c 3b 75 a2 b6 3c
       -0.08006438 -0.033428017 0.004293362 0.022294262
000220 7e 4c af bc 76 46 b2 3c 87 12 4c 3c 19 ed 6a bd
       -0.021398779 0.021762114 0.012455589 -0.05735502
000230 9f b1 df bc 5e d3 3f 3d 16 44 11 3d 22 35 88 bd
       -0.027306376 0.046832435 0.035465322 -0.06650759
000240 11 3d a6 3c dc 18 13 bd e2 44 56 ba 53 f2 38 3c
       0.02029279 -0.03591238 -0.00081737165 0.011288243
000250 2c d6 e8 39 5e 0c e1 bb d3 c4 13 3c d1 59 98 3c
       0.0004441006 -0.0068679294 0.0090190945 0.018597515
000260 89 d9 5a 3b 9b de 1d bd 20 85 70 bc 6a 39 45 bc
       0.0033393821 -0.03854237 -0.014680177 -0.012037614
000270 44 4a 07 bc 39 43 0a 3d 8a d8 ee 3c b0 04 9a 3c
       -0.008257452 0.033755515 0.029155988 0.018801063
000280 fb cc 37 3d 91 22 a9 3c c3 9b 9a 3d 02 6b 3c 3d
       0.04487322 0.020646365 0.075492404 0.046000488
000290 92 df b8 bd 2f 57 19 bd a9 3a 84 bd 19 1f 08 bc
       -0.09027018 -0.03743666 -0.06456501 -0.0083081955
0002a0 12 22 5c 3b 4d 11 92 bc 7c 74 01 bc af 6b 52 bd
       0.0033589643 -0.017830515 -0.007901307 -0.051372226
0002b0 5c bf 85 bd 8b 43 ab bd 95 36 a8 bd ec ff 9e bd
       -0.065306395 -0.08362492 -0.08213536 -0.07763657
0002c0 22 03 33 bd 2e 73 45 bd a0 e2 67 bc 2c 8b bf 3c
       -0.04370416 -0.048205547 -0.014153153 0.023381792
0002d0 2d a1 d3 bc 95 52 c2 bc 51 d4 d3 bc ab 5a 65 bb
       -0.02583369 -0.023721019 -0.025858076 -0.003499667
0002e0 03 d0 6c 3c de c0 9e 3c 50 1e a8 bc a1 9c 68 bb
       0.014453891 0.019379076 -0.020522267 -0.0035493749
0002f0 d0 b8 21 bc 18 f4 f8 3b f6 5e fe 3c e2 36 0b bc
       -0.009870723 0.0075974576 0.03105114 -0.008496972
000300 a3 05 b6 bd 4c 88 88 bd 36 94 b6 bd 12 54 23 bd
       -0.08887794 -0.066666216 -0.08914988 -0.039875098
000310 db ea b8 3c b4 4a 1e bc 78 21 8a bd 05 15 93 bd
       0.022572925 -0.009661365 -0.06744665 -0.071817435
000320 d3 9e 8c bc 5a 37 61 bd e0 0f e2 bd 3d b0 6f bd
       -0.017165577 -0.054984428 -0.11038184 -0.058517683
000330 ec 1c b5 3c 5f 7d 66 bd 5e 75 30 bd 5f 0f 46 bd
       0.022108518 -0.056271907 -0.04308068 -0.048354503
000340 06 d4 db 3d 3e 68 62 3d 7a 8e c6 bc 4d 32 a4 3d
       0.107338 0.055275194 -0.02423786 0.080174066
000350 6f 9a c3 3d cb 31 3d 3d 1a 12 26 3c db 01 20 bd
       0.0955094 0.046190064 0.010136152 -0.03906427
000360 34 5b 0e 3d 88 c0 c9 3c 58 fa 95 3c e9 9a 99 bd
       0.034754947 0.024627939 0.01830785 -0.0750025
000370 e0 33 ec ba a6 f0 5a bc d4 ac 94 bc 50 72 bf bd
       -0.0018020831 -0.013363039 -0.018148817 -0.09347975
000380 57 d7 86 3c ff be 23 3d ec 3a 1f bd ed ae 44 bd
       0.016460104 0.03997707 -0.03887455 -0.048018385
000390 7e 27 07 3e 5c 61 76 3d 61 fe 9b 3c 82 aa 06 bd
       0.13198659 0.060151443 0.019042196 -0.032877453
0003a0 cb ff 1b 3d ca fb 4e 3d 5a 55 b2 3d 19 9d 86 bd
       0.03808574 0.050533094 0.08707686 -0.06572933
0003b0 79 b0 af 3c fb a7 d3 3d 66 1d 22 3d ba af 5b bd
       0.021446453 0.10334774 0.039578818 -0.053634383
0003c0 5d 48 8f bd ad 4c 5e bd 69 6d 6f bd 0e cf 8e bc
       -0.06996224 -0.054272342 -0.05845395 -0.017432716
0003d0 98 96 eb bc 39 69 7d bd 92 5e 0d 3c 22 cf 18 3d
       -0.028758332 -0.061867926 0.008628504 0.037306912
0003e0 2c c8 d5 bc d0 47 0a bd 1c e1 1c 3d 38 ae 41 3d
       -0.026096426 -0.033759892 0.03830062 0.04728529
0003f0 41 9e 5f 3b 0b e8 b1 3c c5 53 8c 3a 46 ce 28 bc
       0.0034121426 0.021717092 0.0010706118 -0.010303086

6.bias f4 [64]
000000 f9 54 5a be 1c 8b 36 3e c0 7e 98 3d 0c 2d b6 bd
       -0.21321477 0.17826504 0.07446051 -0.08895311
000010 d6 82 ed 3d ba 72 e7 bd 66 dc a1 3e 64 f7 b8 be
       0.115972206 -0.11301179 0.31613463 -0.36126244
000020 9c 7c 88 be e2 11 90 3e 16 7a 45 bd 36 a6 81 3d
       -0.2665757 0.28138644 -0.048212133 0.0633053
000030 f1 7e 6b be e1 0e 7c 3e 41 88 0e 3e 83 80 3e be
       -0.22997643 0.24615051 0.13919164 -0.18603711
000040 8b 0e ed 3d d8 81 93 bd ad a7 6c 3e ec ba 91 be
       0.115750395 -0.072025 0.23110838 -0.28462923
000050 fe 39 4e be 26 b7 46 3e a3 da c2 bc b8 eb 43 3d
       -0.2013931 0.19405803 -0.023785895 0.04783222
000060 05 fe 9e 3e f1 22 9d be a9 86 0e bd fd e6 73 3a
       0.31053177 -0.3069072 -0.03479639 0.00093041343
000070 31 fe bf bd c8 37 ce 3d 21 ff fa bd 20 68 03 3e
       -0.09374655 0.10069233 -0.12255693 0.1283269
000080 5c 56 e1 bd ec ce 93 3d 61 dc 0c 3d 0d 82 27 bb
       -0.110028 0.072172016 0.034389857 -0.0025559694
000090 26 5d 9f 3e 38 33 a0 be ed 8d b7 3e ab 67 b3 be
       0.31125754 -0.31289077 0.35850468 -0.3504003
0000a0 d5 b7 09 be 67 8e 1d 3e ab 72 0f be 0c d6 fa 3d
       -0.13449033 0.15386353 -0.14008586 0.122478575
0000b0 1f 8e 40 3d c4 2a ac bd b0 78 19 3c d7 6a 91 bc
       0.047010537 -0.084065944 0.009367153 -0.01775114
0000c0 4d a6 d9 3d 8b a4 c1 bd dd 6a 96 3c 2d 5f e5 bc
       0.106274225 -0.09455212 0.018361503 -0.027999485
0000d0 bf 3b 6a 3d de 50 a1 bd 58 4c 0e 3c f0 0a ad 3a
       0.057185885 -0.07876752 0.008685194 0.0013202112
0000e0 aa 7c 39 3d 8b 56 35 bd 8a a3 51 3e d5 94 7b be
       0.045284905 -0.044271987 0.20472541 -0.24568494
0000f0 46 86 0e be 5e c4 03 3e 1b 13 86 bc 98 65 44 3d
       -0.13918409 0.12867877 -0.016366532 0.04794845

7.odefunc.norm1.weight f4 [64]
000000 9d d6 a3 3f d0 be 79 3f 5f f8 ae 3f cb 2a 76 3f
       1.279987 0.9755678 1.3669547 0.96159047
000010 3a 18 70 3f 3a a3 9a 3f 36 81 29 3f c1 90 b9 3f
       0.93786967 1.2081063 0.66212785 1.44973
000020 6c 8a b2 3f 7a cf 67 3f 1f 0a 81 3f af ee e9 3e
       1.3948493 0.9055096 1.0081214 0.45689914
000030 16 68 b2 3f ce e7 57 3f 86 1b 6b 3f 32 18 91 3f
       1.3938015 0.8433808 0.9183887 1.1335509
000040 c2 07 3c 3f 95 11 a9 3f 13 ed 2a 3f eb 19 92 3f
       0.7344934 1.3208491 0.66767997 1.141416
000050 26 8c 93 3f 9d 36 7e 3f 35 60 a4 3f ed 9b 97 3f
       1.1527145 0.99302083 1.284186 1.184446
000060 f3 55 62 3f b9 90 91 3f 7e c5 5b 3f 6a 55 aa 3f
       0.884124 1.1372291 0.85848224 1.3307316
000070 d0 74 b9 3f 14 d6 94 3f ea 48 92 3f 4b d9 91 3f
       1.4488773 1.1627831 1.1428502 1.1394438
000080 36 93 aa 3f cf 43 8b 3f 36 da 8f 3f e0 83 b0 3f
       1.3326175 1.0880069 1.1238468 1.3790245
000090 d5 5c 53 3f 59 d2 9b 3f 94 b6 63 3f 72 44 8e 3f
       0.82563525 1.2173568 0.8895047 1.1114638
0000a0 5c 44 a8 3f 44 5f 75 3f 12 ba 82 3f 8f 89 8b 3f
       1.3145862 0.9584849 1.0213034 1.0901355
0000b0 0d f6 8a 3f df e0 9c 3f ad bf 44 3f 58 e0 9b 3f
       1.0856339 1.2256125 0.76854974 1.2177839
0000c0 0a 1f b7 3f 14 2d 21 3f 7b 79 5d 3f 1f 95 8a 3f
       1.4306347 0.6295941 0.8651349 1.0826758
0000d0 9b 15 89 3f b2 2b 9b 3f 34 5b ae 3f c8 6e 41 3f
       1.0709718 1.212271 1.3621583 0.75559664
0000e0 29 d9 a1 3f ec fd 9b 3f e0 51 84 3f ff 5b a1 3f
       1.2644397 1.2186866 1.0337486 1.26062
0000f0 96 a4 88 3f 69 fe 88 3f 41 e8 b1 3f 4c d0 9c 3f
       1.0675228 1.070264 1.3899003 1.2251067

7.odefunc.norm1.bias f4 [64]
000000 00 d8 db be 8b ca 5e bf 4a 68 a8 be 59 0b 54 bf
       -0.42938232 -0.87027806 -0.32892066 -0.82829815
000010 8c 25 55 bf 57 09 9d be 79 f8 b6 be b1 a0 08 be
       -0.83260417 -0.30671188 -0.35736445 -0.13342549
000020 07 37 f6 bd f3 24 63 bf 71 2d 49 bd 55 f8 01 bf
       -0.120222144 -0.88728255 -0.049115602 -0.5076955
000030 a3 a6 f1 be 39 e7 2c bf d2 7f d9 be 74 f8 bb be
       -0.47197446 -0.6754032 -0.42480332 -0.36712992
000040 2d a4 35 bf 01 69 85 bd 0f f8 13 bf fa 02 2e bf
       -0.7095364 -0.065141685 -0.5780038 -0.6797329
000050 a4 5b fc be d7 83 22 bf b9 95 b4 be 1f f3 ec be
       -0.49288666 -0.6348242 -0.3527048 -0.46279237
000060 72 72 ac be 91 bf c2 be b2 98 42 bf b5 c3 98 be
       -0.33681065 -0.3803678 -0.76014245 -0.29836813
000070 7c be da be 69 31 d2 be 63 92 28 bf a6 94 13 bf
       -0.42723453 -0.41053322 -0.6584837 -0.57648695
000080 ef de 7c be 59 9d 46 bf 75 29 cb be 2f 5e 92 be
       -0.24694417 -0.77583843 -0.39680067 -0.2858748
000090 78 eb 23 bf e3 a5 b3 be ca 4b 32 bf 40 aa 88 be
       -0.6403117 -0.350875 -0.69646895 -0.2669239
0000a0 da b2 57 be e2 8e 22 bf 41 62 59 bf 3c 6c 0e bf
       -0.2106432 -0.6349927 -0.8491555 -0.556339
0000b0 75 6e 2b bf 0d fd 1b bf 3c 56 41 bf 57 7f 25 be
       -0.6696542 -0.60933 -0.7552221 -0.16161858
0000c0 96 e7 a7 be b1 24 1e bf a8 3e 27 bf 56 16 9f be
       -0.32793874 -0.61774737 -0.6532998 -0.31071728
0000d0 a1 80 20 bf 61 1c 21 bf 28 7a dd be 61 a5 12 bf
       -0.6269627 -0.6293393 -0.4325726 -0.572836
0000e0 d2 b0 06 bf 94 0d 13 bf ad a3 9d be 4b 90 ce be
       -0.52613556 -0.57442594 -0.30788937 -0.40344462
0000f0 55 87 be be bd 53 ed be 77 a2 02 bf 7c fc c4 be
       -0.37212625 -0.4635295 -0.5102915 -0.3847388

7.odefunc.conv1._layer.weight f4 [64, 65, 3, 3]
000000 fe 88 f6 3a 9a 73 77 bd 6c 0a 10 bd e1 a0 b9 bc
       0.0018809137 -0.06041298 -0.03516619 -0.02265972
000010 5a c0 69 3c 14 b1 d2 bc af 04 7a bd ff 9f 90 bd
       0.014267052 -0.025719203 -0.061039623 -0.07061767
000020 77 5d f4 bc e0 bc 7d bc f8 af 95 3d 42 44 97 3c
       -0.029829724 -0.015486926 0.07308954 0.018465165
000030 30 0b 6e be b3 c7 01 be 36 ab b4 bd e3 76 71 3d
       -0.23246455 -0.12673835 -0.088217184 0.05895127
000040 a7 22 ae 3d 85 e7 ed 3d 48 5e 73 3d c5 3d 8a bc
       0.08502703 0.116164245 0.059416085 -0.016875157
000050 01 68 27 3c 94 f7 a8 bd af 05 02 be a3 c6 e1 3c
       0.010217668 -0.08250347 -0.1269748 0.027560538
000060 26 6e 17 3e 28 e5 b8 3d 3f 6a 86 bc f9 b5 ca 3d
       0.14788112 0.09028083 -0.016408084 0.0989799
000070 0b 54 f6 bb 82 1e ba bd 44 e3 64 bd dd 04 01 be
       -0.007517343 -0.0908785 -0.0558808 -0.12599511
000080 2e e2 79 bd 6e 5e b9 bd cd 22 4c be ac ad 1c be
       -0.061006717 -0.09051214 -0.1993515 -0.15300626
000090 b7 9d 3b 3e b3 41 2a 3d 7e 09 d4 3d f6 3e df bd
       0.18321882 0.041566562 0.10353373 -0.10900681
0000a0 29 c1 09 be 6b 09 48 bd 4a f1 b9 bd b2 4a f9 bd
       -0.13452591 -0.048837107 -0.09079225 -0.1217245
0000b0 23 42 10 be 57 4a 8e 3d c4 66 55 39 1e ed 34 3e
       -0.14087729 0.06947773 0.00020351546 0.17668578
0000c0 63 60 32 3e 3d b7 fa 3d 0e 94 e0 3d f6 f0 ed bc
       0.17419581 0.12241981 0.10965739 -0.029045563
0000d0 1b 66 0b 3e c1 d7 27 3e 44 a9 a5 3c a3 ef 41 bd
       0.13613169 0.16390897 0.020222314 -0.047347676
0000e0 a1 ec 13 be 9b 82 9d bd 04 22 3e bd 00 53 e1 bd
       -0.14445736 -0.07690927 -0.04641916 -0.11002159
0000f0 41 2c 94 bd 6d 2a 58 3c 02 53 42 3d 0b b1 fd 3d
       -0.07235003 0.013193709 0.047442444 0.12387284
000100 55 d5 0e 3e 05 c4 38 3e d5 62 f0 3d 64 66 39 3e
       0.13948567 0.18043526 0.11737601 0.18105465
000110 f0 0e 56 3e 6f b7 8c bd 6a f4 a2 3c 9c 02 0a 3d
       0.20904136 -0.06870925 0.019891936 0.033693895
000120 a8 d1 b4 bd 9f 80 bf bd 3e 67 46 3c 55 91 74 3c
       -0.08829051 -0.093507044 0.012109576 0.014927228
000130 fc 26 ea bd 72 0c 9e bd 60 de 2c 3e c3 2e e4 3d
       -0.11433217 -0.077172175 0.16881704 0.111417316
000140 f8 d4 97 3d b3 5e 95 3c e5 d8 fb bd 58 1c e3 bd
       0.074136674 0.018233633 -0.12297229 -0.110893905
000150 76 d6 8c be 52 3d 50 be 28 f1 46 bc d2 1b b4 3c
       -0.2750737 -0.20335892 -0.012142457 0.021985922
000160 e5 69 08 3d e8 0d 24 be 5a 30 80 3d 75 ae 25 be
       0.033304114 -0.1602093 0.06259222 -0.16179831
000170 cb 83 c7 be ec e3 67 3d d3 bb 96 3d 32 4f 01 3e
       -0.38967738 0.056613848 0.073600434 0.12627867
000180 db 24 f0 be b8 a7 c3 be 94 4d 65 bc 16 a3 1e bc
       -0.46903118 -0.38213897 -0.013995547 -0.009682437
000190 53 08 19 bd 93 2a 12 bc 8c 92 99 bc 46 0d c1 39
       -0.037361454 -0.008921283 -0.018746637 0.00036821718
0001a0 73 8e d8 3c 8d 47 08 bd 0a 23 59 3c dd 57 a6 bc
       0.026435113 -0.03327136 0.013252983 -0.020305568
0001b0 56 3f 17 bd 00 2c ad bb 13 8a 5b 3d 6b 92 28 3d
       -0.036925636 -0.005284786 0.053598475 0.04115526
0001c0 93 46 47 bc cf 3a 65 3d c7 3a 07 bd 71 c8 83 3b
       -0.012162822 0.055964287 -0.03301504 0.004021697
0001d0 68 c4 65 3d a2 20 bb 3c dd c1 86 bb 94 41 0b be
       0.05609551 0.022842709 -0.004112466 -0.13599235
0001e0 fb 09 16 bd 18 83 86 3b 5c d8 72 3e 59 0f e3 bd
       -0.036630612 0.004104983 0.23715347 -0.11086912
0001f0 9d 9c 90 3c d7 c4 29 3e 6e 5f b5 3d 1c a7 b9 bd
       0.017652804 0.16578995 0.088560924 -0.09065077
000200 33 f4 1d be 3a d0 74 bd 06 0a 3d bc 20 c5 10 bc
       -0.15425186 -0.059768893 -0.011538034 -0.008836061
000210 ba 97 6b be 8c 0d 9d be 1c cc 42 be 46 11 0a 3e
       -0.23007098 -0.30674398 -0.19023174 0.13483152
000220 a9 bb e6 3c 16 3e 6e be 57 12 08 be 38 1e 84 3d
       0.028165655 -0.23265871 -0.13288246 0.06451076
000230 9f 44 3d 3e c3 b0 a7 bd b7 15 68 bc 70 59 57 bd
       0.18483208 -0.081880115 -0.0141653335 -0.05257553
000240 b9 c9 36 bd 1b ef 82 3d 96 44 1b bd 46 f0 4b 3c
       -0.04462597 0.06393262 -0.037907206 0.012447422
000250 36 43 1b bc f2 d3 02 bd 42 cf 9b 3d c3 0d da 3d
       -0.009476474 -0.031940408 0.07607891 0.10647156
000260 11 dd 00 bd a6 df cb bc 07 1a d4 bd 4a ff e6 3d
       -0.031460825 -0.024886917 -0.10356527 0.11279161
000270 42 e5 7b 3c ba 8a 29 3d eb 58 0d be 8c ab 80 be
       0.015374484 0.041392066 -0.13803451 -0.2513088
000280 53 28 9a bd d7 d2 9d 3d 62 e0 cf bd 14 5e cc bd
       -0.075272225 0.0770623 -0.101502195 -0.099788815
000290 fd c7 e3 bb e6 01 95 bd 04 ea 9f bd b5 a0 25 ba
       -0.0069513307 -0.07275753 -0.07808307 -0.00063181977
0002a0 38 ee 9f bb 68 f5 e1 3d d2 df b6 3d cb f7 d4 bd
       -0.004880693 0.11033136 0.08929409 -0.10398825
0002b0 16 35 f0 bd 08 33 01 be 79 a7 d6 3b 2e 1a b2 3d
       -0.11728875 -0.12617123 0.006550726 0.086964
0002c0 53 e5 2f 3e 86 ed 79 3c 83 66 c9 3d 69 14 cd 3d
       0.17177324 0.015254384 0.09834006 0.100136586
0002d0 1d 3f 26 3e 75 a4 c3 3d 31 c2 33 3e dd 3e 14 3d
       0.16235013 0.09552852 0.17554547 0.036192764
0002e0 6f c7 02 bd c1 1c 6c bd 5e bd 62 be 62 68 36 be
       -0.031928476 -0.05764461 -0.2214255 -0.17813256
0002f0 db 1f 74 be ff 4a 80 bd c2 4b 24 bd 2d bd 01 be
       -0.23840277 -0.06264304 -0.04011131 -0.12669821
000300 26 9c a4 3d 81 6d 31 3c 9f c8 c9 3d a5 6d 6d bd
       0.080375955 0.01082933 0.098527186 -0.057965893
000310 cf 19 4b bc 24 16 37 be dc 3a c2 bd ab 78 31 bd
       -0.01239629 -0.1787954 -0.09483883 -0.04332797
000320 db 47 e6 bd 42 18 59 b7 d9 78 34 3e 51 bf 39 3e
       -0.11244174 -1.2939856e-05 0.17624225 0.18139388
000330 56 54 78 3d aa 55 72 3c 98 d4 ac 3d 39 b5 2e bc
       0.060627304 0.014790932 0.084389865 -0.010663324
000340 e5 8b 1a bb 71 4e 0f bd 2e a9 36 bd 47 b4 8d bd
       -0.0023581919 -0.034986917 -0.044594936 -0.06919151
000350 76 6f 67 3a b5 06 ae bd f5 ef 71 bc fc 31 84 bc
       0.00088285597 -0.08497373 -0.014766683 -0.016137116
000360 65 0e 4f bb 65 4c da 3d 88 2f 1a 3e 30 c4 e8 3d
       -0.0031594273 0.10659102 0.15057194 0.11365545
000370 ec 37 29 3e b9 8f 65 3e 91 99 0f 3e 1c 8e 2e 3e
       0.16525239 0.22418107 0.14023425 0.17046398
000380 4a a3 28 3d bc 68 d2 3c be c2 15 bd 78 3d 24 be
       0.04117135 0.025684707 -0.036562674 -0.16039073
000390 da 88 86 bc 3b 5e 37 be 4b 96 10 be 4f f0 07 be
       -0.016422678 -0.1790704 -0.14119832 -0.13275264
0003a0 f3 10 19 be 23 f8 39 bd e5 ff dd bd e2 3e 3d bb
       -0.14947872 -0.045402657 -0.10839824 -0.0028876592
0003b0 8a 81 42 3d 55 61 07 bd ed 91 d8 3c ff 18 a8 3b
       0.04748682 -0.033051807 0.02643677 0.005129933
0003c0 35 43 2f bd 88 e7 30 3d 0f 76 0c 3d ea 67 d8 bd
       -0.042788703 0.043189555 0.034292277 -0.10566695
0003d0 e9 7f 87 be 1e 87 57 be b6 a0 00 3e 3b 13 aa 3d
       -0.26464775 -0.21047637 0.12561306 0.08304449
0003e0 11 7d ed 3d 5e 13 9f bd e7 e9 4e bd ca 16 9a 3d
       0.1159612 -0.07767366 -0.050516035 0.07523878
0003f0 12 ea cf bc fd 29 30 bd f5 31 c6 bd 3e ac 92 bd
       -0.025380168 -0.043008793 -0.09677497 -0.07161759

7.odefunc.conv1._layer.bias f4 [64]
000000 fd 3d a5 bd 94 0c a8 3b 80 18 d8 3c c1 57 5b bd
       -0.08068464 0.0051284526 0.02637887 -0.053550486
000010 8e 79 80 3d bf 7a 42 bd 1b b1 74 bc 12 c6 30 bc
       0.06273185 -0.04748034 -0.014934803 -0.010789411
000020 22 94 bf bb c3 f5 e3 bc e4 d6 1e bd 3b 62 01 3d
       -0.005846516 -0.02782715 -0.038779154 0.03158782
000030 79 c8 3b bc af 43 9c 3d 47 3b ab 3d 9a c0 c3 bc
       -0.011461371 0.07630097 0.08360916 -0.02389555
000040 5b cc 04 3d cd 56 1e bd 77 bb 83 bb 2f f6 71 3d
       0.03242145 -0.038657 -0.0040201503 0.05907267
000050 b9 c6 a4 3c 4e af c7 bd e3 7c f1 3b 29 9a 1e bd
       0.02011429 -0.097502336 0.007369624 -0.038721237
000060 52 6c c9 3b a8 7f 83 bd a6 56 ec bc ff 5c e3 3c
       0.006146946 -0.06420833 -0.028849911 0.027754305
000070 55 49 96 3b 83 6e 11 3d f2 c9 cd 3d 51 bd 16 be
       0.0045863786 0.035505783 0.10048284 -0.14720656
000080 64 0a 7f 3d fb bf 8a bd 66 24 86 bc 55 49 93 bc
       0.06226577 -0.067748986 -0.016374778 -0.017979303
000090 68 ec 38 bc c2 5d 08 3d ca ce 17 3c 30 d7 e0 bc
       -0.011286832 0.03329254 0.009265611 -0.02744636
0000a0 56 86 a2 bd 99 03 33 3d 08 e5 1b bd ab f7 5c 3d
       -0.07935779 0.043704603 -0.038060218 0.053947132
0000b0 cc a3 2b 3d 14 58 a0 bd df 0f 6b bd 6a 79 ad 3d
       0.041904256 -0.078292996 -0.057388183 0.084704235
0000c0 a8 84 a7 3c 2c 0c b5 bc f7 c3 8a bd 41 1a e0 3c
       0.020448998 -0.02210053 -0.067756586 0.027356269
0000d0 ae 39 52 bd 24 53 44 3d b4 83 13 bd 9b f7 2c 3c
       -0.05132454 0.04793085 -0.036014274 0.010557081
0000e0 28 26 ad 3c 24 00 e4 bc 88 b4 95 bc 62 b1 b6 bb
       0.021136358 -0.027832098 -0.01827456 -0.005575345
0000f0 29 26 ef bb 80 3a 05 3d 99 95 0b be 64 be 00 3e
       -0.00729825 0.032526493 -0.13631286 0.12572628

7.odefunc.norm2.weight f4 [64]
000000 7a 11 90 3f 8f 03 85 3f 5b 22 7f 3f d4 4b b1 3f
       1.1255333 1.0391711 0.996618 1.3851266
000010 f8 48 96 3f a0 5d a8 3f 3b a7 8a 3f 65 94 82 3f
       1.1741018 1.3153572 1.0832285 1.0201536
000020 1a 2b 39 3f ba d9 84 3f e6 31 70 3f 40 0b 79 3f
       0.7233139 1.0378945 0.9382614 0.9728279
000030 d4 26 86 3f a2 28 81 3f 64 16 ad 3f d0 32 82 3f
       1.0480599 1.0090525 1.3522458 1.0171757
000040 52 bf 7c 3f 01 79 93 3f c0 2f 6b 3f 17 e8 4d 3f
       0.9872943 1.1521302 0.91869736 0.80432266
000050 a4 2a 87 3f 4d af 86 3f 3b a0 8a 3f e6 a6 a3 3f
       1.0559888 1.0522248 1.0830148 1.2785308
000060 41 18 50 3f 55 12 9e 3f f3 32 9d 3f 79 18 89 3f
       0.8128701 1.2349344 1.2281173 1.0710593
000070 22 e5 84 3f 7a 59 15 3f d1 ca 90 3f e2 63 85 3f
       1.0382426 0.58339655 1.1311895 1.0421107
000080 d5 84 7d 3f f1 b5 90 3f fc b0 87 3f 16 99 6c 3f
       0.9903081 1.1305524 1.0600886 0.9242109
000090 79 82 6c 3f cc f6 9e 3f d5 fa 87 3f 0e 49 9e 3f
       0.92386585 1.2419066 1.0623423 1.2366045
0000a0 45 17 88 3f ea 47 74 3f 5f 2f 93 3f 61 32 76 3f
       1.0632101 0.9542223 1.1498832 0.9617062
0000b0 a0 72 93 3f ca 51 80 3f 0b 45 87 3f 51 f1 79 3f
       1.1519356 1.002496 1.0567945 0.97633845
0000c0 24 17 df 3f 67 78 95 3f 21 a5 78 3f c2 d7 93 3f
       1.7428937 1.1677369 0.97126967 1.1550219
0000d0 a8 96 33 3f 75 ee 85 3f 91 8a 96 3f 7a a3 95 3f
       0.7015176 1.0463396 1.1761037 1.1690514
0000e0 a0 e7 90 3f ec 43 8d 3f e1 20 96 3f ee e9 71 3f
       1.1320686 1.1036353 1.1728784 0.94497573
0000f0 b6 df 8e 3f 9a 19 94 3f dc 93 b6 3f fc 89 72 3f
       1.1162021 1.1570313 1.4263873 0.947418

7.odefunc.norm2.bias f4 [64]
000000 7f 6f 8a bf 30 f3 d8 be 9c cc 51 bf 71 55 67 bf
       -1.0815276 -0.42373037 -0.81952834 -0.9036475
000010 df 0d 8e bf 04 0d 56 bf 4b cc 8d bf 0e dd 53 bf
       -1.1097983 -0.8361361 -1.107797 -0.8275918
000020 00 ed 5e bf f4 4b 99 be 04 8a f4 be 71 1f 69 bf
       -0.87080383 -0.2994076 -0.47761548 -0.910636
000030 5e e9 10 bf fb 90 99 bf bc a6 8f bf d1 6a 57 bf
       -0.5660609 -1.199737 -1.1222758 -0.84147364
000040 75 d1 7f bf 17 a1 53 bf 35 9e a4 be b1 5c 77 bf
       -0.9992898 -0.8266768 -0.32151952 -0.9662581
000050 74 21 6f bf 40 21 75 be b2 0c 27 bf 4f 28 05 bf
       -0.9341042 -0.23938465 -0.65253747 -0.5201463
000060 e5 14 8e bf 7e 02 05 bf 3e 99 bf be 7d a3 55 bf
       -1.1100127 -0.5195693 -0.37421602 -0.8345259
000070 c4 80 21 bf 87 81 3c bf 8e db 6e bf a7 79 3b bf
       -0.63087106 -0.73635143 -0.93303764 -0.732325
000080 a2 e2 9c bf 68 0a 0b bf 6f 09 04 bf f3 09 5d bf
       -1.2256663 -0.54312754 -0.51576895 -0.86343306
000090 14 12 8a bf 97 fd be be 7c 52 86 bf 68 af 91 be
       -1.0786767 -0.3730285 -1.0493922 -0.28454137
0000a0 31 50 d6 be 25 d7 26 bf c9 f4 be be 6b 55 4b bf
       -0.41858056 -0.65172035 -0.3729613 -0.7942721
0000b0 a6 15 07 bf 38 2b 50 bf 5c a2 38 bf 5c 05 bc be
       -0.5276741 -0.81315947 -0.7212274 -0.3672284
0000c0 99 46 9a bf 53 ed 9f be e0 25 8c bf e5 47 55 bf
       -1.2052795 -0.31235752 -1.0949059 -0.8331283
0000d0 fa a2 4e bf 40 b0 3d bf 91 49 ba bd 07 e6 8a bf
       -0.8071743 -0.7409706 -0.09096063 -1.0851449
0000e0 6d 5f 59 bf ba a2 44 bf a7 f7 4c bf a7 ca d3 be
       -0.84911233 -0.768108 -0.8006539 -0.4136555
0000f0 7d 6b 39 bf 2f 6d 97 bf b0 6d dc be a0 f1 85 bf
       -0.7242964 -1.1830195 -0.43052435 -1.0464363
